2024-02-14 18:57:46.705 | DEBUG    | __main__:<module>:49 - debug message
2024-02-14 18:57:46.706 | INFO     | __main__:<module>:50 - info message
2024-02-14 18:57:46.706 | WARNING  | __main__:<module>:51 - warning message
2024-02-14 18:57:46.706 | ERROR    | __main__:<module>:52 - error message
dpr [… num_knn [9, 9, 10, 10, 11, 12, 12, 13, 13, 14, 15, 15, 16, 16, 17, 18]
DeepGCN(
  (stem): Stem(
    (convs): Sequential(
      (0): Conv2d(3, 40, kernel_size=(3, 3), stride=(2, 2), padding=(1, 1))
      (1): BatchNorm2d(40, eps=1e-05, momentum=0.1, affine=True, track_running_stats=True)
      (2): GELU(approximate='none')
      (3): Conv2d(40, 80, kernel_size=(3, 3), stride=(2, 2), padding=(1, 1))
      (4): BatchNorm2d(80, eps=1e-05, momentum=0.1, affine=True, track_running_stats=True)
      (5): GELU(approximate='none')
      (6): Conv2d(80, 160, kernel_size=(3, 3), stride=(2, 2), padding=(1, 1))
      (7): BatchNorm2d(160, eps=1e-05, momentum=0.1, affine=True, track_running_stats=True)
      (8): GELU(approximate='none')
      (9): Conv2d(160, 320, kernel_size=(3, 3), stride=(2, 2), padding=(1, 1))
      (10): BatchNorm2d(320, eps=1e-05, momentum=0.1, affine=True, track_running_stats=True)
      (11): GELU(approximate='none')
      (12): Conv2d(320, 320, kernel_size=(3, 3), stride=(1, 1), padding=(1, 1))
      (13): BatchNorm2d(320, eps=1e-05, momentum=0.1, affine=True, track_running_stats=True)
    )
  )
  (backbone): Sequential(
    (0): Sequential(
      (0): Grapher(
        (fc1): Sequential(
          (0): Conv2d(320, 320, kernel_size=(1, 1), stride=(1, 1))
          (1): BatchNorm2d(320, eps=1e-05, momentum=0.1, affine=True, track_running_stats=True)
        )
        (graph_conv): DyGraphConv2d(
          (gconv): MRConv2d(
            (nn): BasicConv(
              (0): Conv2d(640, 640, kernel_size=(1, 1), stride=(1, 1), groups=4)
              (1): BatchNorm2d(640, eps=1e-05, momentum=0.1, affine=True, track_running_stats=True)
              (2): GELU(approximate='none')
            )
          )
          (dilated_knn_graph): DenseDilatedKnnGraph(
            (_dilated): DenseDilated()
          )
        )
        (fc2): Sequential(
          (0): Conv2d(640, 320, kernel_size=(1, 1), stride=(1, 1))
          (1): BatchNorm2d(320, eps=1e-05, momentum=0.1, affine=True, track_running_stats=True)
        )
        (drop_path): Identity()
      )
      (1): FFN(
        (fc1): Sequential(
          (0): Conv2d(320, 1280, kernel_size=(1, 1), stride=(1, 1))
          (1): BatchNorm2d(1280, eps=1e-05, momentum=0.1, affine=True, track_running_stats=True)
        )
        (act): GELU(approximate='none')
        (fc2): Sequential(
          (0): Conv2d(1280, 320, kernel_size=(1, 1), stride=(1, 1))
          (1): BatchNorm2d(320, eps=1e-05, momentum=0.1, affine=True, track_running_stats=True)
        )
        (drop_path): Identity()
      )
    )
    (1): Sequential(
      (0): Grapher(
        (fc1): Sequential(
          (0): Conv2d(320, 320, kernel_size=(1, 1), stride=(1, 1))
          (1): BatchNorm2d(320, eps=1e-05, momentum=0.1, affine=True, track_running_stats=True)
        )
        (graph_conv): DyGraphConv2d(
          (gconv): MRConv2d(
            (nn): BasicConv(
              (0): Conv2d(640, 640, kernel_size=(1, 1), stride=(1, 1), groups=4)
              (1): BatchNorm2d(640, eps=1e-05, momentum=0.1, affine=True, track_running_stats=True)
              (2): GELU(approximate='none')
            )
          )
          (dilated_knn_graph): DenseDilatedKnnGraph(
            (_dilated): DenseDilated()
          )
        )
        (fc2): Sequential(
          (0): Conv2d(640, 320, kernel_size=(1, 1), stride=(1, 1))
          (1): BatchNorm2d(320, eps=1e-05, momentum=0.1, affine=True, track_running_stats=True)
        )
        (drop_path): DropPath(drop_prob=0.007)
      )
      (1): FFN(
        (fc1): Sequential(
          (0): Conv2d(320, 1280, kernel_size=(1, 1), stride=(1, 1))
          (1): BatchNorm2d(1280, eps=1e-05, momentum=0.1, affine=True, track_running_stats=True)
        )
        (act): GELU(approximate='none')
        (fc2): Sequential(
          (0): Conv2d(1280, 320, kernel_size=(1, 1), stride=(1, 1))
          (1): BatchNorm2d(320, eps=1e-05, momentum=0.1, affine=True, track_running_stats=True)
        )
        (drop_path): DropPath(drop_prob=0.007)
      )
    )
    (2): Sequential(
      (0): Grapher(
        (fc1): Sequential(
          (0): Conv2d(320, 320, kernel_size=(1, 1), stride=(1, 1))
          (1): BatchNorm2d(320, eps=1e-05, momentum=0.1, affine=True, track_running_stats=True)
        )
        (graph_conv): DyGraphConv2d(
          (gconv): MRConv2d(
            (nn): BasicConv(
              (0): Conv2d(640, 640, kernel_size=(1, 1), stride=(1, 1), groups=4)
              (1): BatchNorm2d(640, eps=1e-05, momentum=0.1, affine=True, track_running_stats=True)
              (2): GELU(approximate='none')
            )
          )
          (dilated_knn_graph): DenseDilatedKnnGraph(
            (_dilated): DenseDilated()
          )
        )
        (fc2): Sequential(
          (0): Conv2d(640, 320, kernel_size=(1, 1), stride=(1, 1))
          (1): BatchNorm2d(320, eps=1e-05, momentum=0.1, affine=True, track_running_stats=True)
        )
        (drop_path): DropPath(drop_prob=0.013)
      )
      (1): FFN(
        (fc1): Sequential(
          (0): Conv2d(320, 1280, kernel_size=(1, 1), stride=(1, 1))
          (1): BatchNorm2d(1280, eps=1e-05, momentum=0.1, affine=True, track_running_stats=True)
        )
        (act): GELU(approximate='none')
        (fc2): Sequential(
          (0): Conv2d(1280, 320, kernel_size=(1, 1), stride=(1, 1))
          (1): BatchNorm2d(320, eps=1e-05, momentum=0.1, affine=True, track_running_stats=True)
        )
        (drop_path): DropPath(drop_prob=0.013)
      )
    )
    (3): Sequential(
      (0): Grapher(
        (fc1): Sequential(
          (0): Conv2d(320, 320, kernel_size=(1, 1), stride=(1, 1))
          (1): BatchNorm2d(320, eps=1e-05, momentum=0.1, affine=True, track_running_stats=True)
        )
        (graph_conv): DyGraphConv2d(
          (gconv): MRConv2d(
            (nn): BasicConv(
              (0): Conv2d(640, 640, kernel_size=(1, 1), stride=(1, 1), groups=4)
              (1): BatchNorm2d(640, eps=1e-05, momentum=0.1, affine=True, track_running_stats=True)
              (2): GELU(approximate='none')
            )
          )
          (dilated_knn_graph): DenseDilatedKnnGraph(
            (_dilated): DenseDilated()
          )
        )
        (fc2): Sequential(
          (0): Conv2d(640, 320, kernel_size=(1, 1), stride=(1, 1))
          (1): BatchNorm2d(320, eps=1e-05, momentum=0.1, affine=True, track_running_stats=True)
        )
        (drop_path): DropPath(drop_prob=0.020)
      )
      (1): FFN(
        (fc1): Sequential(
          (0): Conv2d(320, 1280, kernel_size=(1, 1), stride=(1, 1))
          (1): BatchNorm2d(1280, eps=1e-05, momentum=0.1, affine=True, track_running_stats=True)
        )
        (act): GELU(approximate='none')
        (fc2): Sequential(
          (0): Conv2d(1280, 320, kernel_size=(1, 1), stride=(1, 1))
          (1): BatchNorm2d(320, eps=1e-05, momentum=0.1, affine=True, track_running_stats=True)
        )
        (drop_path): DropPath(drop_prob=0.020)
      )
    )
    (4): Sequential(
      (0): Grapher(
        (fc1): Sequential(
          (0): Conv2d(320, 320, kernel_size=(1, 1), stride=(1, 1))
          (1): BatchNorm2d(320, eps=1e-05, momentum=0.1, affine=True, track_running_stats=True)
        )
        (graph_conv): DyGraphConv2d(
          (gconv): MRConv2d(
            (nn): BasicConv(
              (0): Conv2d(640, 640, kernel_size=(1, 1), stride=(1, 1), groups=4)
              (1): BatchNorm2d(640, eps=1e-05, momentum=0.1, affine=True, track_running_stats=True)
              (2): GELU(approximate='none')
            )
          )
          (dilated_knn_graph): DenseDilatedKnnGraph(
            (_dilated): DenseDilated()
          )
        )
        (fc2): Sequential(
          (0): Conv2d(640, 320, kernel_size=(1, 1), stride=(1, 1))
          (1): BatchNorm2d(320, eps=1e-05, momentum=0.1, affine=True, track_running_stats=True)
        )
        (drop_path): DropPath(drop_prob=0.027)
      )
      (1): FFN(
        (fc1): Sequential(
          (0): Conv2d(320, 1280, kernel_size=(1, 1), stride=(1, 1))
          (1): BatchNorm2d(1280, eps=1e-05, momentum=0.1, affine=True, track_running_stats=True)
        )
        (act): GELU(approximate='none')
        (fc2): Sequential(
          (0): Conv2d(1280, 320, kernel_size=(1, 1), stride=(1, 1))
          (1): BatchNorm2d(320, eps=1e-05, momentum=0.1, affine=True, track_running_stats=True)
        )
        (drop_path): DropPath(drop_prob=0.027)
      )
    )
    (5): Sequential(
      (0): Grapher(
        (fc1): Sequential(
          (0): Conv2d(320, 320, kernel_size=(1, 1), stride=(1, 1))
          (1): BatchNorm2d(320, eps=1e-05, momentum=0.1, affine=True, track_running_stats=True)
        )
        (graph_conv): DyGraphConv2d(
          (gconv): MRConv2d(
            (nn): BasicConv(
              (0): Conv2d(640, 640, kernel_size=(1, 1), stride=(1, 1), groups=4)
              (1): BatchNorm2d(640, eps=1e-05, momentum=0.1, affine=True, track_running_stats=True)
              (2): GELU(approximate='none')
            )
          )
          (dilated_knn_graph): DenseDilatedKnnGraph(
            (_dilated): DenseDilated()
          )
        )
        (fc2): Sequential(
          (0): Conv2d(640, 320, kernel_size=(1, 1), stride=(1, 1))
          (1): BatchNorm2d(320, eps=1e-05, momentum=0.1, affine=True, track_running_stats=True)
        )
        (drop_path): DropPath(drop_prob=0.033)
      )
      (1): FFN(
        (fc1): Sequential(
          (0): Conv2d(320, 1280, kernel_size=(1, 1), stride=(1, 1))
          (1): BatchNorm2d(1280, eps=1e-05, momentum=0.1, affine=True, track_running_stats=True)
        )
        (act): GELU(approximate='none')
        (fc2): Sequential(
          (0): Conv2d(1280, 320, kernel_size=(1, 1), stride=(1, 1))
          (1): BatchNorm2d(320, eps=1e-05, momentum=0.1, affine=True, track_running_stats=True)
        )
        (drop_path): DropPath(drop_prob=0.033)
      )
    )
    (6): Sequential(
      (0): Grapher(
        (fc1): Sequential(
          (0): Conv2d(320, 320, kernel_size=(1, 1), stride=(1, 1))
          (1): BatchNorm2d(320, eps=1e-05, momentum=0.1, affine=True, track_running_stats=True)
        )
        (graph_conv): DyGraphConv2d(
          (gconv): MRConv2d(
            (nn): BasicConv(
              (0): Conv2d(640, 640, kernel_size=(1, 1), stride=(1, 1), groups=4)
              (1): BatchNorm2d(640, eps=1e-05, momentum=0.1, affine=True, track_running_stats=True)
              (2): GELU(approximate='none')
            )
          )
          (dilated_knn_graph): DenseDilatedKnnGraph(
            (_dilated): DenseDilated()
          )
        )
        (fc2): Sequential(
          (0): Conv2d(640, 320, kernel_size=(1, 1), stride=(1, 1))
          (1): BatchNorm2d(320, eps=1e-05, momentum=0.1, affine=True, track_running_stats=True)
        )
        (drop_path): DropPath(drop_prob=0.040)
      )
      (1): FFN(
        (fc1): Sequential(
          (0): Conv2d(320, 1280, kernel_size=(1, 1), stride=(1, 1))
          (1): BatchNorm2d(1280, eps=1e-05, momentum=0.1, affine=True, track_running_stats=True)
        )
        (act): GELU(approximate='none')
        (fc2): Sequential(
          (0): Conv2d(1280, 320, kernel_size=(1, 1), stride=(1, 1))
          (1): BatchNorm2d(320, eps=1e-05, momentum=0.1, affine=True, track_running_stats=True)
        )
        (drop_path): DropPath(drop_prob=0.040)
      )
    )
    (7): Sequential(
      (0): Grapher(
        (fc1): Sequential(
          (0): Conv2d(320, 320, kernel_size=(1, 1), stride=(1, 1))
          (1): BatchNorm2d(320, eps=1e-05, momentum=0.1, affine=True, track_running_stats=True)
        )
        (graph_conv): DyGraphConv2d(
          (gconv): MRConv2d(
            (nn): BasicConv(
              (0): Conv2d(640, 640, kernel_size=(1, 1), stride=(1, 1), groups=4)
              (1): BatchNorm2d(640, eps=1e-05, momentum=0.1, affine=True, track_running_stats=True)
              (2): GELU(approximate='none')
            )
          )
          (dilated_knn_graph): DenseDilatedKnnGraph(
            (_dilated): DenseDilated()
          )
        )
        (fc2): Sequential(
          (0): Conv2d(640, 320, kernel_size=(1, 1), stride=(1, 1))
          (1): BatchNorm2d(320, eps=1e-05, momentum=0.1, affine=True, track_running_stats=True)
        )
        (drop_path): DropPath(drop_prob=0.047)
      )
      (1): FFN(
        (fc1): Sequential(
          (0): Conv2d(320, 1280, kernel_size=(1, 1), stride=(1, 1))
          (1): BatchNorm2d(1280, eps=1e-05, momentum=0.1, affine=True, track_running_stats=True)
        )
        (act): GELU(approximate='none')
        (fc2): Sequential(
          (0): Conv2d(1280, 320, kernel_size=(1, 1), stride=(1, 1))
          (1): BatchNorm2d(320, eps=1e-05, momentum=0.1, affine=True, track_running_stats=True)
        )
        (drop_path): DropPath(drop_prob=0.047)
      )
    )
    (8): Sequential(
      (0): Grapher(
        (fc1): Sequential(
          (0): Conv2d(320, 320, kernel_size=(1, 1), stride=(1, 1))
          (1): BatchNorm2d(320, eps=1e-05, momentum=0.1, affine=True, track_running_stats=True)
        )
        (graph_conv): DyGraphConv2d(
          (gconv): MRConv2d(
            (nn): BasicConv(
              (0): Conv2d(640, 640, kernel_size=(1, 1), stride=(1, 1), groups=4)
              (1): BatchNorm2d(640, eps=1e-05, momentum=0.1, affine=True, track_running_stats=True)
              (2): GELU(approximate='none')
            )
          )
          (dilated_knn_graph): DenseDilatedKnnGraph(
            (_dilated): DenseDilated()
          )
        )
        (fc2): Sequential(
          (0): Conv2d(640, 320, kernel_size=(1, 1), stride=(1, 1))
          (1): BatchNorm2d(320, eps=1e-05, momentum=0.1, affine=True, track_running_stats=True)
        )
        (drop_path): DropPath(drop_prob=0.053)
      )
      (1): FFN(
        (fc1): Sequential(
          (0): Conv2d(320, 1280, kernel_size=(1, 1), stride=(1, 1))
          (1): BatchNorm2d(1280, eps=1e-05, momentum=0.1, affine=True, track_running_stats=True)
        )
        (act): GELU(approximate='none')
        (fc2): Sequential(
          (0): Conv2d(1280, 320, kernel_size=(1, 1), stride=(1, 1))
          (1): BatchNorm2d(320, eps=1e-05, momentum=0.1, affine=True, track_running_stats=True)
        )
        (drop_path): DropPath(drop_prob=0.053)
      )
    )
    (9): Sequential(
      (0): Grapher(
        (fc1): Sequential(
          (0): Conv2d(320, 320, kernel_size=(1, 1), stride=(1, 1))
          (1): BatchNorm2d(320, eps=1e-05, momentum=0.1, affine=True, track_running_stats=True)
        )
        (graph_conv): DyGraphConv2d(
          (gconv): MRConv2d(
            (nn): BasicConv(
              (0): Conv2d(640, 640, kernel_size=(1, 1), stride=(1, 1), groups=4)
              (1): BatchNorm2d(640, eps=1e-05, momentum=0.1, affine=True, track_running_stats=True)
              (2): GELU(approximate='none')
            )
          )
          (dilated_knn_graph): DenseDilatedKnnGraph(
            (_dilated): DenseDilated()
          )
        )
        (fc2): Sequential(
          (0): Conv2d(640, 320, kernel_size=(1, 1), stride=(1, 1))
          (1): BatchNorm2d(320, eps=1e-05, momentum=0.1, affine=True, track_running_stats=True)
        )
        (drop_path): DropPath(drop_prob=0.060)
      )
      (1): FFN(
        (fc1): Sequential(
          (0): Conv2d(320, 1280, kernel_size=(1, 1), stride=(1, 1))
          (1): BatchNorm2d(1280, eps=1e-05, momentum=0.1, affine=True, track_running_stats=True)
        )
        (act): GELU(approximate='none')
        (fc2): Sequential(
          (0): Conv2d(1280, 320, kernel_size=(1, 1), stride=(1, 1))
          (1): BatchNorm2d(320, eps=1e-05, momentum=0.1, affine=True, track_running_stats=True)
        )
        (drop_path): DropPath(drop_prob=0.060)
      )
    )
    (10): Sequential(
      (0): Grapher(
        (fc1): Sequential(
          (0): Conv2d(320, 320, kernel_size=(1, 1), stride=(1, 1))
          (1): BatchNorm2d(320, eps=1e-05, momentum=0.1, affine=True, track_running_stats=True)
        )
        (graph_conv): DyGraphConv2d(
          (gconv): MRConv2d(
            (nn): BasicConv(
              (0): Conv2d(640, 640, kernel_size=(1, 1), stride=(1, 1), groups=4)
              (1): BatchNorm2d(640, eps=1e-05, momentum=0.1, affine=True, track_running_stats=True)
              (2): GELU(approximate='none')
            )
          )
          (dilated_knn_graph): DenseDilatedKnnGraph(
            (_dilated): DenseDilated()
          )
        )
        (fc2): Sequential(
          (0): Conv2d(640, 320, kernel_size=(1, 1), stride=(1, 1))
          (1): BatchNorm2d(320, eps=1e-05, momentum=0.1, affine=True, track_running_stats=True)
        )
        (drop_path): DropPath(drop_prob=0.067)
      )
      (1): FFN(
        (fc1): Sequential(
          (0): Conv2d(320, 1280, kernel_size=(1, 1), stride=(1, 1))
          (1): BatchNorm2d(1280, eps=1e-05, momentum=0.1, affine=True, track_running_stats=True)
        )
        (act): GELU(approximate='none')
        (fc2): Sequential(
          (0): Conv2d(1280, 320, kernel_size=(1, 1), stride=(1, 1))
          (1): BatchNorm2d(320, eps=1e-05, momentum=0.1, affine=True, track_running_stats=True)
        )
        (drop_path): DropPath(drop_prob=0.067)
      )
    )
    (11): Sequential(
      (0): Grapher(
        (fc1): Sequential(
          (0): Conv2d(320, 320, kernel_size=(1, 1), stride=(1, 1))
          (1): BatchNorm2d(320, eps=1e-05, momentum=0.1, affine=True, track_running_stats=True)
        )
        (graph_conv): DyGraphConv2d(
          (gconv): MRConv2d(
            (nn): BasicConv(
              (0): Conv2d(640, 640, kernel_size=(1, 1), stride=(1, 1), groups=4)
              (1): BatchNorm2d(640, eps=1e-05, momentum=0.1, affine=True, track_running_stats=True)
              (2): GELU(approximate='none')
            )
          )
          (dilated_knn_graph): DenseDilatedKnnGraph(
            (_dilated): DenseDilated()
          )
        )
        (fc2): Sequential(
          (0): Conv2d(640, 320, kernel_size=(1, 1), stride=(1, 1))
          (1): BatchNorm2d(320, eps=1e-05, momentum=0.1, affine=True, track_running_stats=True)
        )
        (drop_path): DropPath(drop_prob=0.073)
      )
      (1): FFN(
        (fc1): Sequential(
          (0): Conv2d(320, 1280, kernel_size=(1, 1), stride=(1, 1))
          (1): BatchNorm2d(1280, eps=1e-05, momentum=0.1, affine=True, track_running_stats=True)
        )
        (act): GELU(approximate='none')
        (fc2): Sequential(
          (0): Conv2d(1280, 320, kernel_size=(1, 1), stride=(1, 1))
          (1): BatchNorm2d(320, eps=1e-05, momentum=0.1, affine=True, track_running_stats=True)
        )
        (drop_path): DropPath(drop_prob=0.073)
      )
    )
    (12): Sequential(
      (0): Grapher(
        (fc1): Sequential(
          (0): Conv2d(320, 320, kernel_size=(1, 1), stride=(1, 1))
          (1): BatchNorm2d(320, eps=1e-05, momentum=0.1, affine=True, track_running_stats=True)
        )
        (graph_conv): DyGraphConv2d(
          (gconv): MRConv2d(
            (nn): BasicConv(
              (0): Conv2d(640, 640, kernel_size=(1, 1), stride=(1, 1), groups=4)
              (1): BatchNorm2d(640, eps=1e-05, momentum=0.1, affine=True, track_running_stats=True)
              (2): GELU(approximate='none')
            )
          )
          (dilated_knn_graph): DenseDilatedKnnGraph(
            (_dilated): DenseDilated()
          )
        )
        (fc2): Sequential(
          (0): Conv2d(640, 320, kernel_size=(1, 1), stride=(1, 1))
          (1): BatchNorm2d(320, eps=1e-05, momentum=0.1, affine=True, track_running_stats=True)
        )
        (drop_path): DropPath(drop_prob=0.080)
      )
      (1): FFN(
        (fc1): Sequential(
          (0): Conv2d(320, 1280, kernel_size=(1, 1), stride=(1, 1))
          (1): BatchNorm2d(1280, eps=1e-05, momentum=0.1, affine=True, track_running_stats=True)
        )
        (act): GELU(approximate='none')
        (fc2): Sequential(
          (0): Conv2d(1280, 320, kernel_size=(1, 1), stride=(1, 1))
          (1): BatchNorm2d(320, eps=1e-05, momentum=0.1, affine=True, track_running_stats=True)
        )
        (drop_path): DropPath(drop_prob=0.080)
      )
    )
    (13): Sequential(
      (0): Grapher(
        (fc1): Sequential(
          (0): Conv2d(320, 320, kernel_size=(1, 1), stride=(1, 1))
          (1): BatchNorm2d(320, eps=1e-05, momentum=0.1, affine=True, track_running_stats=True)
        )
        (graph_conv): DyGraphConv2d(
          (gconv): MRConv2d(
            (nn): BasicConv(
              (0): Conv2d(640, 640, kernel_size=(1, 1), stride=(1, 1), groups=4)
              (1): BatchNorm2d(640, eps=1e-05, momentum=0.1, affine=True, track_running_stats=True)
              (2): GELU(approximate='none')
            )
          )
          (dilated_knn_graph): DenseDilatedKnnGraph(
            (_dilated): DenseDilated()
          )
        )
        (fc2): Sequential(
          (0): Conv2d(640, 320, kernel_size=(1, 1), stride=(1, 1))
          (1): BatchNorm2d(320, eps=1e-05, momentum=0.1, affine=True, track_running_stats=True)
        )
        (drop_path): DropPath(drop_prob=0.087)
      )
      (1): FFN(
        (fc1): Sequential(
          (0): Conv2d(320, 1280, kernel_size=(1, 1), stride=(1, 1))
          (1): BatchNorm2d(1280, eps=1e-05, momentum=0.1, affine=True, track_running_stats=True)
        )
        (act): GELU(approximate='none')
        (fc2): Sequential(
          (0): Conv2d(1280, 320, kernel_size=(1, 1), stride=(1, 1))
          (1): BatchNorm2d(320, eps=1e-05, momentum=0.1, affine=True, track_running_stats=True)
        )
        (drop_path): DropPath(drop_prob=0.087)
      )
    )
    (14): Sequential(
      (0): Grapher(
        (fc1): Sequential(
          (0): Conv2d(320, 320, kernel_size=(1, 1), stride=(1, 1))
          (1): BatchNorm2d(320, eps=1e-05, momentum=0.1, affine=True, track_running_stats=True)
        )
        (graph_conv): DyGraphConv2d(
          (gconv): MRConv2d(
            (nn): BasicConv(
              (0): Conv2d(640, 640, kernel_size=(1, 1), stride=(1, 1), groups=4)
              (1): BatchNorm2d(640, eps=1e-05, momentum=0.1, affine=True, track_running_stats=True)
              (2): GELU(approximate='none')
            )
          )
          (dilated_knn_graph): DenseDilatedKnnGraph(
            (_dilated): DenseDilated()
          )
        )
        (fc2): Sequential(
          (0): Conv2d(640, 320, kernel_size=(1, 1), stride=(1, 1))
          (1): BatchNorm2d(320, eps=1e-05, momentum=0.1, affine=True, track_running_stats=True)
        )
        (drop_path): DropPath(drop_prob=0.093)
      )
      (1): FFN(
        (fc1): Sequential(
          (0): Conv2d(320, 1280, kernel_size=(1, 1), stride=(1, 1))
          (1): BatchNorm2d(1280, eps=1e-05, momentum=0.1, affine=True, track_running_stats=True)
        )
        (act): GELU(approximate='none')
        (fc2): Sequential(
          (0): Conv2d(1280, 320, kernel_size=(1, 1), stride=(1, 1))
          (1): BatchNorm2d(320, eps=1e-05, momentum=0.1, affine=True, track_running_stats=True)
        )
        (drop_path): DropPath(drop_prob=0.093)
      )
    )
    (15): Sequential(
      (0): Grapher(
        (fc1): Sequential(
          (0): Conv2d(320, 320, kernel_size=(1, 1), stride=(1, 1))
          (1): BatchNorm2d(320, eps=1e-05, momentum=0.1, affine=True, track_running_stats=True)
        )
        (graph_conv): DyGraphConv2d(
          (gconv): MRConv2d(
            (nn): BasicConv(
              (0): Conv2d(640, 640, kernel_size=(1, 1), stride=(1, 1), groups=4)
              (1): BatchNorm2d(640, eps=1e-05, momentum=0.1, affine=True, track_running_stats=True)
              (2): GELU(approximate='none')
            )
          )
          (dilated_knn_graph): DenseDilatedKnnGraph(
            (_dilated): DenseDilated()
          )
        )
        (fc2): Sequential(
          (0): Conv2d(640, 320, kernel_size=(1, 1), stride=(1, 1))
          (1): BatchNorm2d(320, eps=1e-05, momentum=0.1, affine=True, track_running_stats=True)
        )
        (drop_path): DropPath(drop_prob=0.100)
      )
      (1): FFN(
        (fc1): Sequential(
          (0): Conv2d(320, 1280, kernel_size=(1, 1), stride=(1, 1))
          (1): BatchNorm2d(1280, eps=1e-05, momentum=0.1, affine=True, track_running_stats=True)
        )
        (act): GELU(approximate='none')
        (fc2): Sequential(
          (0): Conv2d(1280, 320, kernel_size=(1, 1), stride=(1, 1))
          (1): BatchNorm2d(320, eps=1e-05, momentum=0.1, affine=True, track_running_stats=True)
        )
        (drop_path): DropPath(drop_prob=0.100)
      )
    )
  )
  (prediction): Sequential(
    (0): Conv2d(320, 1024, kernel_size=(1, 1), stride=(1, 1))
    (1): BatchNorm2d(1024, eps=1e-05, momentum=0.1, affine=True, track_running_stats=True)
    (2): GELU(approximate='none')
    (3): Dropout(p=0.0, inplace=False)
    (4): Conv2d(1024, 1000, kernel_size=(1, 1), stride=(1, 1))
  )
)
model flops: 4528344720 input_size: [1, 3, 224, 224]
using repeated_aug
2024-02-14 18:57:50.912 | DEBUG    | vig:forward:180 - inputs:
2024-02-14 18:57:52.135 | DEBUG    | vig:forward:182 - stem:
2024-02-14 18:57:52.135 | DEBUG    | gcn_lib.torch_vertex:forward:217 - In Grapher x.shape: torch.Size([128, 320, 14, 14])
2024-02-14 18:57:52.149 | DEBUG    | gcn_lib.torch_vertex:forward:220 - In Grapher x.shape after fc1: torch.Size([128, 320, 14, 14])
…
